models/nn.pth (torch, 67563 bytes, 3 tensors)

weight f4 [32, 498]
00000000: aa88 493e 015e ac3e 6cfb 19bf c816 b13e
00000010: 50be b13e deb3 1e3f a98b 853e 04d2 1abe
00000020: 51c4 4c3f 5be8 04bf 5d90 323f b222 d0be
00000030: 21b2 6cbd 2af2 80be e453 183f 5bd0 82be
00000040: 4ec3 80be adea 863e 563a f93e cea7 66be
00000050: e2b0 e9be 4eec eabe 35e1 06bf ea3b 3d3f
00000060: 1bbb c4be ff15 acbe f75e e63e b6ca 0a3e
00000070: 8064 1ebf 905d 9b3e 9049 8b3c dd0e dd3e
00000080: 0b7d 103f de77 1d3f 0039 c4be d7d9 f83e
00000090: c1f3 33bf 44b5 b63e db51 053e a915 fa3e
000000a0: 806d 253f 3ec6 18be 0a14 d8be 9db6 e03e
000000b0: 7dd5 e0bd e7c1 f6be 0ef7 813d fec6 b13e
000000c0: ffc6 c03e 86da 0dbf 6a4e 4ebf e7eb 853e
000000d0: 8e45 c63e b28b 943e bbe0 80be f80d 983c
000000e0: 901b 01bf 8059 4cba 765e b63e 001b 003f
000000f0: 48c8 55bf c1a9 943e 0608 8a3e edd1 a13e
00000100: cbf7 d73e df2f 573e e617 c83e 8893 d9bc
00000110: e0ee dabc 42f2 dabc da16 253d 9b6b 5d3e
00000120: 0e9e 303d 2203 c63e 4b31 83be 9099 0fbd
00000130: 60f0 f6bc e8af 943c e5a1 e53d 5283 183d
00000140: 6693 bdbc 4a40 fabc 68c5 c23c 5f61 94bc
00000150: 0ccc de3c f438 2ebc 60fe d13c 079c 0ebd
00000160: c740 b9bc e8d5 5f3c e95d 123e d02f 3bbc
00000170: aa23 143f 35a2 e73d 4631 923e 15df 45be
00000180: 7938 af3e b424 1cbe d631 513d 9379 c23e
00000190: 334b 2fbf 5dbf 5a3f 97a9 943e eedc ce3e
000001a0: 1971 cf3e eed2 313d 60e5 50bf 8663 003f
000001b0: db2d 9b3e 0bf6 4e3f a48c 383e c88d 333f
000001c0: e9bf 603f e5a3 d83e 067a 0c3e 9aeb 1a3f
000001d0: 30fc 6b3f 7777 edbe e58a 49bf a7f8 25bf
000001e0: 93d3 d43e 9434 4ebf 9892 56bf eb31 dcbd
000001f0: d764 b43d f0b6 d7bd bf51 953e 1eba f23e
00000200: d9e5 8b3e 4691 dabe fae6 21bf 255c a93e
00000210: caff 28bf 842c 0dbf e688 583f 8b08 61be
00000220: b2ac 12bd 820d 6fbe d7af d23e 60b5 0c3f
00000230: c59a 2a3f 0350 21be ae28 323f 075a 0f3f
00000240: 4dcf 30bf d95e 3abf 3dd5 d73e 1b20 823e
00000250: 208f 043f cd69 dc3d d737 be3e cd72 10bf
00000260: f28a a03e 106b d43e ae50 da3e 2917 303e
00000270: 4e56 243f 3c7c 21be 64ea 323f dea7 0f3f
00000280: 2cab 4dbf 47b7 7dbe 199c ecbe 398a 743e
00000290: 085e ac3e bcb0 ec3e a5c3 8d3e 06a8 1d3d
000002a0: 80af 233c 7f1a cbbc b9cc b9bc 003f 0cbb
000002b0: 58f8 cc3c e89b 3bbc 2274 d1bc 906a 7bbc
000002c0: 6a1f 09bd c2ea 823c 7412 0e3d 39cc 2cbd
000002d0: d083 2a3c a59a 013d 1421 053c 4a3f 07bf
000002e0: d899 bf3c a716 85be e30e f2be 4b67 993e
000002f0: 15b1 b03e 6816 9d3b 0bcb 843e f52f 04bf
00000300: 966b 923e f2e8 013f f77d 96be b061 24bc
00000310: 406a 2b3a f058 2fbb 1cf6 ecbe 02b9 95be
00000320: 6c16 dbbe 0cf0 78be 194c 083f 9d49 9f3e
00000330: 55ab ff3e 92d1 9a3d ba5e 09bf 8a82 763e
00000340: e5c6 5fbe b908 63be 746f dcbe 5ec5 843d
00000350: dd77 37bf 9b7f 21be 93dc b53d 3461 563f
00000360: 78d2 9e3d 7932 42be c8bd 5bbf 3b2b 293f
00000370: 2d9d 283e 6e0b 5f3e c489 9b3e 6e3a 4b3f
00000380: 9133 c73e abbe 393c 7158 093f 88ed e83e
00000390: 2362 10bf fcb2 b6be 1434 25bf 078b 7dbe
000003a0: af49 e8bd b9a4 383f 6a12 c4be 689a f43e
000003b0: 015b 063f fc92 8bbe 271c 20bf 6dce f93e
000003c0: 9fab 403f 16ee 873e 805b e63e 8bb9 e4be
000003d0: c080 4db8 25cb 183f 15d6 fabe ee69 33bd
000003e0: 8284 5f3e 5e7c a13e fe1f 3fbf 2e5c 6d3f
000003f0: 22fb 2bbf b74f 0ebf f8e1 d0bc ac0e 55bf
0.1968104 0.3366547 -0.60149264 0.34587693 0.3471551 0.61993206 0.26083115 -0.15119177
0.79987055 -0.51917046 0.6975153 -0.4065147 -0.057787064 -0.25184757 0.59503007 -0.25549588
-0.25149006 0.26350918 0.4867732 -0.2252495 -0.45642763 -0.4588341 -0.5268739 0.73919547
-0.38424 -0.33610532 0.44994327 0.1355389 -0.618721 0.3034482 0.01700285 0.43175402
0.564408 0.6151103 -0.38324738 0.486037 -0.70293814 0.3568517 0.13019507 0.4884465
0.6462021 -0.14919373 -0.4220279 0.43889323 -0.1097822 -0.4819481 0.0634595 0.34722131
0.37651822 -0.55411565 -0.805884 0.26156542 0.3872494 0.2901283 -0.25171456 0.018561348
-0.5043268 -0.0007795319 0.35618943 0.500412 -0.8350873 0.29035762 0.26959246 0.31605473
0.4218124 0.21014355 0.39080733 -0.026559606 -0.026725233 -0.026726846 0.040304996 0.2162308
0.043119483 0.38674265 -0.25623545 -0.035058558 -0.030143917 0.018150285 0.112125196 0.03723461
-0.023141574 -0.030548234 0.023775771 -0.018112836 0.027196907 -0.010633696 0.02563399 -0.034816768
-0.022613896 0.013661839 0.14293636 -0.011424974 0.5786692 0.113102354 0.28553218 -0.1932338
0.34222773 -0.15248376 0.051072918 0.3798338 -0.6847412 0.8544825 0.29035637 0.4040293
0.40515974 0.04341405 -0.816 0.5015186 0.30308422 0.8084418 0.180224 0.70138216
0.8779283 0.42312542 0.13718423 0.6051575 0.9218168 -0.46380207 -0.7872756 -0.6483254
0.41567668 -0.8054898 -0.83817434 -0.107517086 0.08808296 -0.105329394 0.2916393 0.4740762
0.27323797 -0.4268896 -0.6324307 0.33078113 -0.66015303 -0.5514605 0.8458389 -0.21975915
-0.035809226 -0.23344997 0.4114978 0.54964256 0.6664241 -0.15753178 0.6959332 0.55996746
-0.69066316 -0.72800976 0.42154875 0.2541512 0.5178089 0.107623674 0.37151977 -0.5642517
0.31356007 0.41487932 0.4263968 0.17196335 0.6419419 -0.15770048 0.698889 0.5611552
-0.8033931 -0.24776946 -0.46212843 0.23880853 0.3366549 0.46228588 0.27688327 0.038490318
0.009990573 -0.024792908 -0.022680627 -0.0021399856 0.025020763 -0.011450745 -0.025568072 -0.015345231
-0.033477224 0.015981082 0.034685567 -0.04218695 0.010407403 0.03164162 0.008125562 -0.52830946
0.023388788 -0.25993845 -0.47276983 0.2996162 0.34510103 0.004793931 0.2593616 -0.51635677
0.28597707 0.5074607 -0.2939298 -0.010033056 0.0006538965 -0.0026755892 -0.46281517 -0.29242712
-0.42790544 -0.2431032 0.53241116 0.3111085 0.49935403 0.075595036 -0.53660166 0.24073234
-0.21853216 -0.22171296 -0.43053782 0.06482957 -0.7166727 -0.15771334 0.08879962 0.8374207
0.077549875 -0.18964566 -0.8583646 0.6608159 0.16466208 0.21781704 0.30378544 0.7938603
0.3890653 0.011336963 0.53650576 0.45493722 -0.56399745 -0.3568343 -0.6453259 -0.24760066
-0.11342179 0.72126347 -0.382953 0.47774053 0.5248261 -0.27260578 -0.6254296 0.48790303
0.75261873 0.26548833 0.44991684 -0.44672808 -4.8995716e-05 0.59684974 -0.48991457 -0.043802194
0.21827891 0.31540197 -0.7465819 0.9271878 -0.67180073 -0.55590385 -0.025498375 -0.8322551

bias f4 [32]
00000000: f57e 963e becc 19be d00a 113e ee78 bdbc
00000010: a910 88bd 20a7 f3bd 9284 843e d1d0 903d
00000020: 7c19 1cbd d041 9b3d 3862 a0bc b64c 0c3e
00000030: 4f50 0dbd 4425 ebbd ef55 893d c028 eb3c
00000040: 9c75 973e eed4 edbd 441b 9dbd 7b15 583e
00000050: b703 74bd 312b 303e eaa1 4d3b 2af2 3abe
00000060: b12b 913b 391d 893e 38be bdbc dfd7 99bd
00000070: c507 1ebe da32 2abd 7b9b 15be 0da3 9f3d
0.29393736 -0.15019509 0.14164281 -0.023128953 -0.06643803 -0.11897111 0.25882393 0.070710786
-0.03811024 0.07580912 -0.019578084 0.13701138 -0.034500416 -0.11481717 0.06705844 0.028705955
0.29581916 -0.11612879 -0.07671216 0.21101944 -0.059573855 0.17203976 0.0031377026 -0.18256441
0.0044302572 0.26780108 -0.023161992 -0.07511877 -0.15432651 -0.041552402 -0.14610092 0.07794771

weight f4 [1, 32]
00000000: a177 52bf cecf 613f 0e45 75bf ee1d 6d3f
00000010: d1bb 5d3f 8272 703f f5f7 7fbf 2143 7abf
00000020: ca6c 6e3f c694 703f 9404 693f 96c5 80bf
00000030: c615 603f 9feb 773f 8ae1 5bbf 566e 6f3f
00000040: 2562 62bf da9b 6f3f a8c3 643f d459 6abf
00000050: 53cb 743f 31c5 7bbf 00cb 7d3f ebe4 5f3f
00000060: 51ba 653f 0551 59bf 69ec 5a3f 2b40 6e3f
00000070: 29d4 533f 1404 593f d12e 6a3f 8233 66bf
-0.8221379 0.8820771 -0.95808494 0.92623794 0.8661471 0.93924725 -0.9998773 -0.9775868
0.9313475 0.9397701 0.9102261 -1.0060298 0.87533224 0.96843904 -0.8589102 0.93527734
-0.88431007 0.93597186 0.8936105 -0.91543317 0.9562275 -0.98347765 0.9913788 0.87458676
0.8973742 -0.8488925 0.85516983 0.9306666 0.82745606 0.8477185 0.91477686 -0.89922345
