models/nn.pth (torch, 67563 bytes, 3 tensors)

weight f4 [32, 498]
0.6298463 0.37430325 0.50333184 0.92810583 -0.7656357 -0.34487975 -0.38266772 0.95129526
1.0599626 -0.63961476 0.6692469 0.8031931 0.9198396 0.81087637 1.2103361 0.821098
0.5611707 -0.39348397 0.52377546 -0.53438133 0.038639385 -0.7246851 -0.55452955 0.72810304
-1.3309957 -0.21151504 -0.83304375 0.1658012 0.23110741 0.1190977 1.0050108 -0.03806558
-0.3200535 0.56379914 0.67456365 0.04186903 0.08986822 -0.6281809 -0.29015827 -0.08332157
-0.41317987 -0.97206026 0.31685925 -0.25345725 0.65120363 0.5682112 0.17215852 -0.9088997
0.32913148 -0.25059846 0.25272846 -0.07540103 -0.14938654 -0.26803806 0.95395195 -0.37424734
0.31913787 -0.0007795319 -0.33845222 0.60908014 0.21673894 -0.4362255 0.45361426 -0.6145511
0.84110206 -0.8056928 -0.69746894 -0.26053888 -0.026725233 -0.29261073 0.040304996 0.21449114
0.3181015 -0.5198773 -0.05483201 -0.627523 -0.030143917 0.018150285 0.37934297 0.03723461
-0.023141574 -0.030548234 0.023775771 -0.018112836 0.027196907 -0.010633696 0.02563399 -0.034816768
-0.022613896 0.013661839 0.57573116 -0.42699456 -0.37453052 0.89255714 0.653952 -0.51204157
-0.26319277 -0.9331788 -0.43765554 0.8909893 0.672874 -0.49243346 -0.67195195 0.47695306
-0.8324228 0.8797541 0.4847633 -0.18482584 -0.73804086 -0.20130895 -0.43033916 0.60138005
0.8180064 0.4849555 0.88881916 -0.7265594 -0.8981667 0.67137694 0.0559375 -0.35995448
0.9722495 0.9197129 0.66193575 0.5773769 -0.62104446 -0.9719093 -0.75983965 0.47224915
0.7592398 0.1863621 0.7395455 0.95688325 0.7574195 -0.25079617 0.7369789 0.4716374
-0.69896823 -0.6928255 0.5168309 -0.08533694 0.2546243 -0.040495314 -0.36365852 0.26316425
0.6366755 0.59301823 0.454483 0.5423771 0.90062207 -0.1435926 -0.14330474 -0.6202827
-0.2652382 0.79967946 0.06909937 0.69378453 0.6175824 0.36505434 0.18544021 -0.33182064
0.35915625 0.6020455 0.029890906 -0.19684114 0.2519991 0.6911735 -0.7869097 -0.49000576
0.009990573 -0.024792908 -0.022680627 -0.0021399856 0.025020763 -0.011450745 -0.025568072 -0.015345231
-0.033477224 0.015981082 0.034685567 0.24140699 0.010407403 -0.51899683 0.008125562 -0.15768528
-0.18717681 0.14474863 0.45570254 -0.50140244 0.6460554 -0.30406657 -0.3161914 0.885966
-0.9948936 -0.16540702 1.0210335 0.7496606 0.49469802 -0.49177867 -0.07717895 0.66798085
-0.47902754 0.49680617 0.45655903 0.071064904 -0.60905135 -0.56337565 -0.8738145 -0.40103716
-0.4212642 0.57539505 0.20409971 -0.7814648 -0.30498326 0.040830713 -0.64748275 -0.6007103
0.5808867 -0.7652132 1.0631427 0.25442678 0.28966153 0.21542601 0.47343037 -0.46018422
-0.7865468 0.7317018 0.29279983 0.01505177 0.21537153 -0.82863533 0.80766577 0.5520429
-0.07388218 -0.27501544 -0.6733293 0.9582635 -1.0150247 0.11613587 -0.3522578 0.1211705
-0.333097 0.9046382 0.9402224 0.5199899 0.8694702 -0.75110537 0.20000027 0.097057104
-0.5611903 -0.08485869 0.019182239 -0.50765425 0.53478694 -0.5997362 -0.46489894 0.6337973
00000000: 9b3d 213f ada4 bf3e 5bda 003f 5898 6d3f
00000010: b400 44bf 1494 b0be 06ed c3be 1688 733f
00000020: dbac 873f cbbd 23bf c453 2b3f 109e 4d3f
00000030: 9c7a 6b3f 9895 4f3f 4bec 9a3f 7b33 523f
00000040: e2a8 0f3f bb76 c9be 2616 063f 37cd 08bf
00000050: 5544 1e3d f684 39bf a6f5 0dbf f664 3a3f
00000060: 115e aabf 6697 58be 5b42 55bf cac7 293e
00000070: 6ca7 6c3e 7fe9 f33d 32a4 803f a7ea 1bbd
00000080: 0dde a3be 2455 103f 34b0 2c3f dc7e 2b3d
00000090: d40c b83d 77d0 20bf a08f 94be 80a4 aabd
000000a0: 508c d3be f1d8 78bf 603b a23e 26c5 81be
000000b0: 48b5 263f 4a76 113f 534a 303e a7ad 68bf
000000c0: ec83 a83e 714e 80be a065 813e db6b 9abd
000000d0: c9f8 18be 493c 89be 3236 743f 599d bfbe
000000e0: 0a66 a33e 8059 4cba 9c49 adbe adec 1b3f
000000f0: d0f0 5d3e f358 dfbe 2140 e83e 3953 1dbf
00000100: 7752 573f e241 4ebf 538d 32bf 5a65 85be
00000110: e0ee dabc 13d1 95be da16 253d 91a3 5b3e
00000120: 33de a23e ae16 05bf 8897 60bd 59a5 20bf
00000130: 60f0 f6bc e8af 943c 3e39 c23e 5283 183d
00000140: 6693 bdbc 4a40 fabc 68c5 c23c 5f61 94bc
00000150: 0ccc de3c f438 2ebc 60fe d13c 079c 0ebd
00000160: c740 b9bc e8d5 5f3c 1e63 133f 089f dabe
00000170: 77c2 bfbe a07e 643f 6669 273f 2815 03bf
00000180: 34c1 86be cee4 6ebf 6314 e0be e017 643f
00000190: 7841 2c3f 3d20 fcbe 0b05 2cbf 3133 f43e
000001a0: a919 55bf 9137 613f e532 f83e fc42 3dbe
000001b0: 3ff0 3cbf ef23 4ebe 6a55 dcbe 0bf4 193f
000001c0: de68 513f 164c f83e a789 633f ccff 39bf
000001d0: 41ee 65bf 5cdf 2b3f b81e 653d f44b b8be
000001e0: 58e5 783f 4e72 6b3f 9f74 293f f9ce 133f
000001f0: c5fc 1ebf 0ccf 78bf da84 42bf a4ca f13e
00000200: 8a5d 423f b5d5 3e3e db52 3d3f 4df6 743f
00000210: 3fe6 413f 5b68 80be a6aa 3c3f 757a f13e
00000220: 95ef 32bf 035d 31bf 084f 043f 22c5 aebd
00000230: 1e5e 823e 6ade 25bd 7331 babe 77bd 863e
00000240: 2afd 223f 0bd0 173f ffb1 e83e 3ad9 0a3f
00000250: 2b8f 663f f009 13be 7abe 12be d9ca 1ebf
00000260: 4dcd 87be cbb7 4c3f f883 8d3d dd9b 313f
00000270: e119 1e3f 67e8 ba3e 0ae4 3d3e 65e4 a9be
00000280: 54e3 b73e a71f 1a3f c6dd f43c b990 49be
00000290: 0706 813e bff0 303f ea72 49bf 09e2 fabe
000002a0: 80af 233c 7f1a cbbc b9cc b9bc 003f 0cbb
000002b0: 58f8 cc3c e89b 3bbc 2274 d1bc 906a 7bbc
000002c0: 6a1f 09bd c2ea 823c 7412 0e3d 6533 773e
000002d0: d083 2a3c fadc 04bf 1421 053c 4078 21be
000002e0: 47ab 3fbe fc38 143e d851 e93e e95b 00bf
000002f0: e363 253f 9dae 9bbe d7e3 a1be abce 623f
00000300: 59b1 7ebf 7560 29be 3ab1 823f c2e9 3f3f
00000310: 0f49 fd3e 6aca fbbe ff0f 9ebd cb00 2b3f
00000320: 1943 f5be 615d fe3e 1bc2 e93e 7a8a 913d
00000330: caea 1bbf 6339 10bf 4fb2 5fbf be54 cdbe
00000340: f1af d7be 174d 133f 84ff 503e 140e 48bf
00000350: c426 9cbe 1b3e 273d 6ec1 25bf 26c8 19bf
00000360: feb4 143f 03e5 43bf 0f15 883f 3a44 823e
00000370: 844e 943e a398 5c3e 7765 f23e 449d ebbe
00000380: 225b 49bf cf50 3b3f dce9 953e b39b 763c
00000390: 5b8a 5c3e 7221 54bf 2fc3 4e3f af52 0d3f
000003a0: 8a4f 97bd d3ce 8cbe 4f5f 2cbf c250 753f
000003b0: 54ec 81bf a5d8 ed3d 225b b4be 3d28 f83d
000003c0: b18b aabe 5e96 673f 6ab2 703f 0f1e 053f
000003d0: 9995 5e3f 7148 40bf dfcc 4c3e e0c5 c63d
000003e0: 2baa 0fbf 65ca adbd 1224 9d3c a1f5 01bf
000003f0: cce7 083f 5088 19bf 3c07 eebe 8a40 223f

bias f4 [32]
0.29231533 -0.054672737 0.107376285 -0.01783804 0.0138863195 -0.018198483 0.12456656 0.21542616
-0.019316705 0.08028751 0.031519294 0.12831852 -0.14764298 -0.10936963 0.11693525 0.029153772
0.32942808 -0.0029213435 -0.095409155 0.30772528 -0.06923286 0.071251705 0.029834868 -0.05102769
-0.03753086 0.27661347 -0.07952293 0.053250562 -0.08146371 -0.09573243 -0.1291003 0.23204209
00000000: 5baa 953e 85f0 5fbd 19e8 db3d 1521 92bc
00000010: 7283 633c fc14 95bc c11c ff3d ad98 5c3e
00000020: 113e 9ebc c76d a43d 601a 013d ee65 033e
00000030: b92f 17be 2ffd dfbd c07b ef3d e4d3 ee3c
00000040: ccaa a83e 0374 3fbb e065 c3bd 2b8e 9d3e
00000050: f5c9 8dbd 6aec 913d 4168 f43c 6902 51bd
00000060: f6b9 19bd 48a0 8d3e ebdc a2bd 431d 5a3d
00000070: 72d6 a6bd 5d0f c4bd de32 04be 719c 6d3e

weight f4 [1, 32]
-1.1106827 1.081784 -1.1303515 1.064629 1.0545734 1.074809 -1.1218283 -1.0697993
1.1083479 1.1386083 1.0799206 -1.1471517 1.0623726 1.1068333 -1.0204533 1.1025007
-1.1195699 1.0881217 1.0785748 -1.0684166 1.1064012 -1.1893783 1.1458796 1.0366684
1.0803553 -1.0267248 0.9959082 1.1274141 1.0521153 1.0349057 1.0935867 -1.077623
00000000: da2a 8ebf e677 8a3f 5caf 90bf c345 883f
00000010: 43fc 863f 5793 893f 1298 8fbf 2fef 88bf
00000020: 58de 8d3f ebbd 913f d73a 8a3f ded5 92bf
00000030: d3fb 873f b7ac 8d3f 379e 82bf be1e 8d3f
00000040: 114e 8fbf 9247 8b3f bd0e 8a3f e0c1 88bf
00000050: 8e9e 8d3f 8c3d 98bf 2fac 923f 8db1 843f
00000060: 1549 8a3f b86b 83bf d7f3 7e3f 1b4f 903f
00000070: b7ab 863f ca77 843f a6fa 8b3f 8def 89bf
